…
      padding:
      - 1
      - 1
      spectrogram_dims:
      - 1
      - 80
      - 63
      stride:
      - 2
      - 1
    show_logs: true
    trainer_params:
      gpus: []
      max_epochs: 100
vae_model:
  desc: null
  value: "MusicVAEFlat(\n  (encoder): Sequential(\n    (0): Sequential(\n      (conv2d_0):\
    \ Conv2d(1, 128, kernel_size=(3, 3), stride=(2, 1), padding=(1, 1))\n      (batchNorm2d_0):\
    \ BatchNorm2d(128, eps=1e-05, momentum=0.1, affine=True, track_running_stats=True)\n\
    \      (leakyReLU_0): LeakyReLU(negative_slope=0.01)\n    )\n    (1): Sequential(\n\
    \      (conv2d_1): Conv2d(128, 64, kernel_size=(3, 3), stride=(2, 1), padding=(1,\
    \ 1))\n      (batchNorm2d_1): BatchNorm2d(64, eps=1e-05, momentum=0.1, affine=True,\
    \ track_running_stats=True)\n      (leakyReLU_1): LeakyReLU(negative_slope=0.01)\n\
    \    )\n    (2): Sequential(\n      (conv2d_2): Conv2d(64, 32, kernel_size=(3,\
    \ 3), stride=(2, 1), padding=(1, 1))\n      (batchNorm2d_2): BatchNorm2d(32, eps=1e-05,\
    \ momentum=0.1, affine=True, track_running_stats=True)\n      (leakyReLU_2): LeakyReLU(negative_slope=0.01)\n\
    \    )\n  )\n  (fc_mu): Sequential(\n    (conv2d_fc_mu): Conv2d(32, 16, kernel_size=(3,\
    \ 3), stride=(2, 1), padding=(1, 1))\n    (batchNorm2d_fc_mu): BatchNorm2d(16,\
    \ eps=1e-05, momentum=0.1, affine=True, track_running_stats=True)\n    (leakyReLU_fc_mu):\
    \ LeakyReLU(negative_slope=0.01)\n  )\n  (fc_var): Sequential(\n    (conv2d_fc_var):\
    \ Conv2d(32, 16, kernel_size=(3, 3), stride=(2, 1), padding=(1, 1))\n    (batchNorm2d_fc_var):\
    \ BatchNorm2d(16, eps=1e-05, momentum=0.1, affine=True, track_running_stats=True)\n\
    \    (leakyReLU_fc_var): LeakyReLU(negative_slope=0.01)\n  )\n  (decoder): Sequential(\n\
    \    (0): Sequential(\n      (convTranspose2d_1): ConvTranspose2d(16, 32, kernel_size=(3,\
    \ 3), stride=(2, 1), padding=(1, 1), output_padding=(1, 0))\n      (batchnorm2d_1):\
    \ BatchNorm2d(32, eps=1e-05, momentum=0.1, affine=True, track_running_stats=True)\n\
    \      (leakyReLU_1): LeakyReLU(negative_slope=0.01)\n    )\n    (1): Sequential(\n\
    \      (convTranspose2d_2): ConvTranspose2d(32, 64, kernel_size=(3, 3), stride=(2,\
    \ 1), padding=(1, 1), output_padding=(1, 0))\n      (batchnorm2d_2): BatchNorm2d(64,\
    \ eps=1e-05, momentum=0.1, affine=True, track_running_stats=True)\n      (leakyReLU_2):\
    \ LeakyReLU(negative_slope=0.01)\n    )\n    (2): Sequential(\n      (convTranspose2d_3):\
    \ ConvTranspose2d(64, 128, kernel_size=(3, 3), stride=(2, 1), padding=(1, 1),\
    \ output_padding=(1, 0))\n      (batchnorm2d_3): BatchNorm2d(128, eps=1e-05, momentum=0.1,\
    \ affine=True, track_running_stats=True)\n      (leakyReLU_3): LeakyReLU(negative_slope=0.01)\n\
    \    )\n  )\n  (final_layer): Sequential(\n    (final_convTranspose2d): ConvTranspose2d(128,\
    \ 128, kernel_size=(3, 3), stride=(2, 1), padding=(1, 1), output_padding=(1, 0))\n\
    \    (final_batchNorm2d): BatchNorm2d(128, eps=1e-05, momentum=0.1, affine=True,\
    \ track_running_stats=True)\n    (final_leakyReLU): LeakyReLU(negative_slope=0.01)\n\
    \    (final_Conv2d): Conv2d(128, 1, kernel_size=(3, 3), stride=(1, 1), padding=(1,\
    \ 1))\n    (final_tanH): Sigmoid()\n  )\n)"
