…
----------------------------------------------------------------------------------------------------
distributed_backend=gloo
All distributed processes registered. Starting with 1 processes
----------------------------------------------------------------------------------------------------
/opt/anaconda3/lib/python3.8/site-packages/pytorch_lightning/core/datamodule.py:469: LightningDeprecationWarning: DataModule.setup has already been called, so it will not be called again. In v1.6 this behavior will change to always call DataModule.setup.
  rank_zero_deprecation(
MusicVAEFlat(
  (encoder): Sequential(
    (0): Sequential(
      (conv2d_0): Conv2d(1, 128, kernel_size=(3, 3), stride=(2, 1), padding=(1, 1))
      (batchNorm2d_0): BatchNorm2d(128, eps=1e-05, momentum=0.1, affine=True, track_running_stats=True)
      (leakyReLU_0): LeakyReLU(negative_slope=0.01)
    )
    (1): Sequential(
      (conv2d_1): Conv2d(128, 64, kernel_size=(3, 3), stride=(2, 1), padding=(1, 1))
      (batchNorm2d_1): BatchNorm2d(64, eps=1e-05, momentum=0.1, affine=True, track_running_stats=True)
      (leakyReLU_1): LeakyReLU(negative_slope=0.01)
    )
    (2): Sequential(
      (conv2d_2): Conv2d(64, 32, kernel_size=(3, 3), stride=(2, 1), padding=(1, 1))
      (batchNorm2d_2): BatchNorm2d(32, eps=1e-05, momentum=0.1, affine=True, track_running_stats=True)
      (leakyReLU_2): LeakyReLU(negative_slope=0.01)
    )
  )
  (fc_mu): Sequential(
    (conv2d_fc_mu): Conv2d(32, 16, kernel_size=(3, 3), stride=(2, 1), padding=(1, 1))
    (batchNorm2d_fc_mu): BatchNorm2d(16, eps=1e-05, momentum=0.1, affine=True, track_running_stats=True)
    (leakyReLU_fc_mu): LeakyReLU(negative_slope=0.01)
  )
  (fc_var): Sequential(
    (conv2d_fc_var): Conv2d(32, 16, kernel_size=(3, 3), stride=(2, 1), padding=(1, 1))
    (batchNorm2d_fc_var): BatchNorm2d(16, eps=1e-05, momentum=0.1, affine=True, track_running_stats=True)
    (leakyReLU_fc_var): LeakyReLU(negative_slope=0.01)
  )
  (decoder): Sequential(
    (0): Sequential(
      (convTranspose2d_1): ConvTranspose2d(16, 32, kernel_size=(3, 3), stride=(2, 1), padding=(1, 1), output_padding=(1, 0))
      (batchnorm2d_1): BatchNorm2d(32, eps=1e-05, momentum=0.1, affine=True, track_running_stats=True)
      (leakyReLU_1): LeakyReLU(negative_slope=0.01)
    )
    (1): Sequential(
      (convTranspose2d_2): ConvTranspose2d(32, 64, kernel_size=(3, 3), stride=(2, 1), padding=(1, 1), output_padding=(1, 0))
      (batchnorm2d_2): BatchNorm2d(64, eps=1e-05, momentum=0.1, affine=True, track_running_stats=True)
      (leakyReLU_2): LeakyReLU(negative_slope=0.01)
    )
    (2): Sequential(
      (convTranspose2d_3): ConvTranspose2d(64, 128, kernel_size=(3, 3), stride=(2, 1), padding=(1, 1), output_padding=(1, 0))
      (batchnorm2d_3): BatchNorm2d(128, eps=1e-05, momentum=0.1, affine=True, track_running_stats=True)
      (leakyReLU_3): LeakyReLU(negative_slope=0.01)
    )
  )
  (final_layer): Sequential(
    (final_convTranspose2d): ConvTranspose2d(128, 128, kernel_size=(3, 3), stride=(2, 1), padding=(1, 1), output_padding=(1, 0))
    (final_batchNorm2d): BatchNorm2d(128, eps=1e-05, momentum=0.1, affine=True, track_running_stats=True)
    (final_leakyReLU): LeakyReLU(negative_slope=0.01)
    (final_Conv2d): Conv2d(128, 1, kernel_size=(3, 3), stride=(1, 1), padding=(1, 1))
    (final_tanH): Sigmoid()
  )
)
======= Training MusicVAEFlat =======
  | Name  | Type         | Params
---------------------------------------
0 | model | MusicVAEFlat | 349 K
---------------------------------------
349 K     Trainable params
0         Non-trainable params
349 K     Total params
1.399     Total estimated model params size (MB)
…
